model/linear_model.pth (torch, 1654 bytes, 1 tensors)

linear.weight f4 [1, 16]
000000 1d f3 85 3e 1c 07 0c bf c2 53 d2 bf 38 f0 45 be
       0.26162043 -0.5469835 -1.6431811 -0.19329917
000010 11 84 1a 3f cb 94 fc be 2c dd c1 bf 36 b6 22 be
       0.6035777 -0.4933227 -1.5145621 -0.1588982
000020 1d 14 35 bd eb 7c 1f 3f 3d cc 44 be 20 ca 13 bf
       -0.044208635 0.62299985 -0.19218536 -0.57730293
000030 e4 ce fe be 73 a4 cf 3f d5 e7 56 3f df e4 ee 3e
       -0.4976722 1.6222061 0.839475 0.4665899
